…
        y                        1024(0x400)                        
        z                        1024(0x400)                        
      Grid Max Size:           4294967295(0xffffffff)             
      Grid Max Size per Dimension:
        x                        4294967295(0xffffffff)             
        y                        4294967295(0xffffffff)             
        z                        4294967295(0xffffffff)             
      FBarrier Max Size:       32                                 
*** Done ***             
--- Single Complete Layer ---
LlamaDecoderLayer(
  (self_attn): LlamaAttention(
    (q_proj): Linear(in_features=2048, out_features=2048, bias=False)
    (k_proj): Linear(in_features=2048, out_features=512, bias=False)
    (v_proj): Linear(in_features=2048, out_features=512, bias=False)
    (o_proj): Linear(in_features=2048, out_features=2048, bias=False)
  )
  (mlp): LlamaMLP(
    (gate_proj): Linear(in_features=2048, out_features=8192, bias=False)
    (up_proj): Linear(in_features=2048, out_features=8192, bias=False)
    (down_proj): Linear(in_features=8192, out_features=2048, bias=False)
    (act_fn): SiLU()
  )
  (input_layernorm): LlamaRMSNorm((2048,), eps=1e-05)
  (post_attention_layernorm): LlamaRMSNorm((2048,), eps=1e-05)
)
--- Single Attention Layer ---
LlamaAttention(
  (q_proj): Linear(in_features=2048, out_features=2048, bias=False)
  (k_proj): Linear(in_features=2048, out_features=512, bias=False)
  (v_proj): Linear(in_features=2048, out_features=512, bias=False)
  (o_proj): Linear(in_features=2048, out_features=2048, bias=False)
)
Head Dimension: 64
--- Query Projection Module ---
Linear(in_features=2048, out_features=2048, bias=False)
32 Query Heads with D=64
